best_aqi_model.pth (torch, 56845 bytes, 14 tensors)

net.0.weight f4 [128, 25]
-0.047582544 0.0066750315 0.44861257 0.009997967 0.14800115 0.18521215 0.0016616761 -0.09962239
-0.21174873 0.092374675 0.0705335 -0.13190402 -0.13065912 -0.15581821 0.08008918 -0.36372954
0.22263874 0.13137083 -0.16799079 -0.15062396 -0.028464802 0.19144848 0.037331562 -0.13480112
0.16956249 -0.10998655 -0.10622554 0.03792145 -0.049887225 -0.20931908 0.2587394 -0.043447565
0.14382122 0.03959931 -0.0067897676 -0.11685198 -0.3187677 0.16014838 -0.007357785 -0.010848538
0.021241404 -0.07816671 0.029295705 -0.09619182 0.26515853 -0.1317383 -0.10609826 -0.23310095
0.27965054 0.06474735 0.15122698 0.23252898 -0.05831734 -0.11209678 0.024000434 -0.1782551
0.024487494 0.0901819 -0.25174662 -0.09127434 0.050605398 0.066491865 -0.25250232 -0.040204506
0.021937879 0.23726496 0.017150683 0.13964346 0.28731516 -0.108727895 -0.33402404 -0.029111734
0.050360642 -0.04129481 -0.24420093 0.047862746 0.10446382 0.027896633 -0.2565458 0.20831245
-0.23346831 0.13318066 0.14599149 -0.21313564 -0.061037857 -0.01879695 0.04920924 -0.23204921
0.16962412 0.14210244 -0.07292663 0.3369882 -0.12662789 -0.35833678 -0.13978676 0.0030132716
-0.16257131 0.048314035 -0.05135453 -0.326997 0.014871526 0.070486195 -0.017398892 0.04093841
0.023184443 0.009281086 0.07701102 -0.07423971 0.19334517 -0.09824501 0.0038272499 0.09587419
-0.15543675 -0.09583849 0.106657304 -0.09551961 0.115870565 0.05256053 0.67062306 0.43654472
0.04440987 -0.02804334 -0.15823095 -0.015003938 -0.07632334 -0.21626557 0.19792332 0.08116689
0.023035547 -0.07563602 0.06689833 0.14806473 0.090896666 -0.23515517 -0.12501197 -0.21800564
-0.14798884 -0.041286685 -0.06167658 0.1191418 -0.27507758 -0.07954733 -0.22874698 -0.07137338
0.35761136 -0.0019921307 -0.14133815 -0.20909403 0.0444035 -0.3013369 0.030614251 -0.1534532
0.00084949913 -0.09450578 -0.03093565 0.17444672 0.17438501 -0.040141527 0.048729137 0.14459884
-0.18816409 -0.09281989 0.08682203 0.10671492 -0.092036195 0.028063178 -0.11514314 -0.32805762
-0.20458251 0.15893385 -0.074515246 -0.24451773 0.026831726 -0.24172753 -0.16242175 -0.09983916
-0.08244456 0.095176406 0.06225477 -0.10627646 0.10718816 0.10378013 0.16881289 -0.033424728
-0.012345552 0.09039979 -0.13432463 0.045788668 -0.05366048 0.10233983 0.09067209 0.08290965
0.11789087 -0.28466055 -0.87685657 0.012316685 -0.111746885 -0.033802357 -0.114109024 -0.007842332
-0.09210043 -0.036914475 0.0528626 -0.034770895 0.18476143 0.103404485 -0.020062255 -0.09839259
-0.05617002 -0.113402605 0.28620926 -0.02862496 0.2457366 -0.32475778 -0.17904831 -0.10482282
-0.022729877 -0.12154951 -0.23493591 0.24554023 0.00051439105 -0.07642995 -0.057196017 -0.1740567
0.27075693 -0.19501077 0.09919152 0.005125882 0.08976207 -0.033350118 -0.08918155 0.12851334
0.11544868 0.056279406 0.05159054 0.010874264 0.0106612025 -0.1349876 -0.051190376 -0.11685772
0.20222966 0.084000796 0.073410004 -0.47639692 -0.43332532 -0.017303169 0.08757723 -0.05825224
-0.16726124 0.11567913 0.08545471 -0.0011212333 -0.006966745 -0.019391406 0.066952646 -0.057745364
00000000: eae5 42bd 39ba da3b 8cb0 e53e 83ce 233c
00000010: 9d8d 173e 41a8 3d3e 99cc d93a d306 ccbd
00000020: a9d4 58be ef2e bd3d de73 903d d911 07be
00000030: 81cb 05be cf8e 1fbe cc05 a43d c23a babe
00000040: 69fb 633e 1386 063e c705 2cbe 2b3d 1abe
00000050: 042f e9bc 120b 443e fbe8 183d 4e09 0abe
00000060: caa1 2d3e a140 e1bd c78c d9bd 8653 1b3d
00000070: 8c56 4cbd be57 56be 7e79 843e 13f6 31bd
00000080: df45 133e e332 223d b37c debb 1750 efbd
00000090: 8535 a3be f0fd 233e 9319 f1bb 11be 31bc
000000a0: 7402 ae3c de15 a0bd 8cfd ef3c 3800 c5bd
000000b0: dcc2 873e 68e6 06be 0b4a d9bd 04b2 6ebe
000000c0: 5b2e 8f3e 429a 843d 3fdb 1a3e 141c 6e3e
000000d0: 2ade 6ebd ff92 e5bd 8f9c c43c 8188 36be
000000e0: ff99 c83c 4ab1 b83d efe4 80be 0bee babd
000000f0: 9b47 4f3d e32c 883d fc47 81be 7bad 24bd
00000100: 11b7 b33c 96f5 723e 977f 8c3c b2fe 0e3e
00000110: f91a 933e bbac debd 3305 abbe bb7b eebc
00000120: f646 4e3d bf24 29bd cf0f 7abe ba0b 443d
00000130: 21f1 d53d 7b87 e43c f959 83be dc4f 553e
00000140: 5112 6fbe 8360 083e cb7e 153e 3b40 5abe
00000150: d502 7abd 10fc 99bc a18f 493d 4f9e 6dbe
00000160: f2b1 2d3e 4d83 113e 8f5a 95bd b889 ac3e
00000170: beaa 01be eb77 b7be 4324 0fbe 4f7a 453b
00000180: 1879 26be f0e4 453d 2159 52bd 276c a7be
00000190: b3a7 733c 115b 903d 1f88 8ebc 09af 273d
000001a0: 4ded bd3c b20f 183c f4b7 9d3d fd0a 98bd
000001b0: 47fc 453e ae34 c9bd 99d2 7a3b b059 c43d
000001c0: d02a 1fbe f846 c4bd 256f da3d c99f c3bd
000001d0: 8c4d ed3d b649 573d f4ad 2b3f ca82 df3e
000001e0: 20e7 353d 26bb e5bc 4b07 22be 14d3 75bc
000001f0: 694f 9cbd b974 5dbe 69ac 4a3e d43a a63d
00000200: 0bb5 bc3c 0fe7 9abd fe01 893d 489e 173e
00000210: 0828 ba3d 84cc 70be 2303 00be df3c 5fbe
00000220: 638a 17be 3a1c 29bd 95a0 7cbd 9e00 f43d
00000230: f8d6 8cbe b6e9 a2bd a63c 6abe 352c 92bd
00000240: d618 b73e 688e 02bb f3ba 10be bf1c 56be
00000250: 72e0 353d d548 9abe bdca fa3c d622 1dbe
00000260: ecb0 5e3a 3f8c c1bd c36c fdbc 29a2 323e
00000270: fc91 323e 716b 24bd 3498 473d b811 143e
00000280: 16ae 40be 5b18 bebd c0cf b13d 5a8d da3d
00000290: 797d bcbd c0e4 e53c 2bd0 ebbd 2bf7 a7be
000002a0: 147e 51be 8ebf 223e 739b 98bd db62 7abe
000002b0: 35ce db3c 6c87 77be e351 26be 7978 ccbd
000002c0: b2d8 a8bd d9eb c23d dcfe 7e3d 79a7 d9bd
000002d0: 7785 db3d ad8a d43d 49dd 2c3e 5ee8 08bd
000002e0: 0045 4abc 8623 b93d 658c 09be e68c 3b3d
000002f0: 17cb 5bbd 8b97 d13d 4ab2 b93d 89cc a93d
00000300: c570 f13d 07bf 91be ac79 60bf eccb 493c
00000310: 8ddb e4bd 5774 0abd feb1 e9bd 207d 00bc
00000320: 269f bcbd a233 17bd 7486 583d ed6b 0ebd
00000330: 1a32 3d3e bbc5 d33d 9959 a4bc 0e82 c9bd
00000340: 8912 66bd a03f e8bd 058a 923e e47e eabc
00000350: 60a2 7b3e a746 a6be 7158 37be 59ad d6bd
00000360: 0234 babc f3ee f8bd 0a93 70be e66e 7b3e
00000370: 33d8 063a 4e87 9cbd 5f46 6abd eb3b 32be
00000380: a7a0 8a3e e7b0 47be ec24 cb3d 04f7 a73b
00000390: 2dd5 b73d 229a 08bd d1a4 b6bd 0099 033e
000003a0: 5c70 ec3d 3c85 663d 9a50 533d f829 323c
000003b0: 53ac 2e3c 303a 0abe 00ad 51bd 1a53 efbd
000003c0: 4b15 4f3e 9c08 ac3d fc57 963d 4cea f3be
000003d0: d1dc ddbe 60bf 8dbc b15b b33d e799 6ebd
000003e0: 8846 2bbe 2ee9 ec3d e102 af3d 59f6 92ba
000003f0: 4b49 e4bb bada 9ebc 781e 893d 6786 6cbd

net.0.bias f4 [128]
0.12731735 -0.04172511 -0.07615062 -0.020583136 -0.16664958 -0.05520114 0.13323395 -0.21733028
0.013179611 -0.041810267 -0.009668439 0.026180338 -0.08455463 -0.15551664 -0.054637425 0.054854423
0.14611387 0.023402927 0.14935799 -0.09451682 0.08977398 0.20636621 -0.121727265 -0.1760789
-0.117535114 0.04196928 -0.099885225 -0.14753589 -0.09451276 0.07781386 0.08373872 -0.11211876
-0.1767673 -0.028147321 0.09755984 -0.12840918 -0.13223207 -0.09340581 0.011152124 -0.13199006
-0.0071685375 -0.028356515 0.09975234 -0.10199962 -0.054360025 -0.027876612 -0.2531218 0.0048540733
-0.1582812 0.13568169 0.15490007 0.20481093 -0.1252328 -0.19130848 -0.18195215 0.11030428
-0.07238456 0.16664241 -0.18003118 0.08021398 0.08409566 -0.02423147 0.14656658 -0.1794931
0.16299541 0.06478429 0.18927276 0.11130783 0.17665303 0.04444822 -0.05003969 0.011117273
0.1578891 0.16597326 0.1058873 -0.14767547 -0.19062258 0.05036172 0.06624578 -0.18655962
-0.14500462 -0.046032995 0.09778535 -0.15855445 0.15982056 0.06814308 -0.046645086 -0.119232446
-0.024411296 -0.068493076 0.0640793 -0.19347422 -0.052261356 -0.021472406 0.033949953 0.15539157
0.13532147 0.018197391 -0.16977777 0.17199978 0.13452344 0.20675354 0.022807723 0.15077914
0.054067567 -0.09256665 0.000103489074 0.107091025 0.06784951 -0.04609644 -0.059119165 0.14003627
0.09152261 0.018512098 -0.0928573 -0.021957513 0.100821696 -0.06446053 -0.045569852 -0.21809906
-0.13397846 -0.087894484 -0.1311454 -0.037491877 -0.12242839 0.06432651 -0.16518746 -0.021803744
00000000: 7b5f 023e f3e7 2abd dbf4 9bbd f79d a8bc
00000010: 30a6 2abe 971a 62bd 7b6e 083e d48b 5ebe
00000020: 4cef 573c 3e41 2bbd 5f68 1ebc 2678 d63c
00000030: fa2a adbd c13f 1fbe 7ecb 5fbd 08af 603d
00000040: e09e 153e 7fb7 bf3c 4df1 183e 0992 c1bd
00000050: 6cdb b73d aa51 533e 254c f9bd 074e 34be
00000060: 40b6 f0bd fbe7 2b3d a090 ccbd a613 17be
00000070: e88f c1bd df5c 9f3d 357f ab3d 859e e5bd
00000080: 7d02 35be 3695 e6bc 74cd c73d b27d 03be
00000090: d867 07be 8c4b bfbd 66b7 363c 6728 07be
000000a0: 0de6 eabb ec4b e8bc f44a cc3d 2de5 d0bd
000000b0: 9ea8 5ebd 7e5d e4bc 2e99 81be eb0e 9f3b
000000c0: 7814 22be 24f0 0a3e 209e 1e3e f5b9 513e
000000d0: 073d 00be 5fe6 43be aa51 3abe 36e7 e13d
000000e0: 5b3e 94bd 4fa4 2a3e 185a 38be 3a47 a43d
000000f0: 583a ac3d 1381 c6bc 8d15 163e 0acd 37be
00000100: 45e8 263e a0ad 843d b8d0 413e 5cf5 e33d
00000110: 88e4 343e 560f 363d 6bf6 4cbd 3925 363c
00000120: aead 213e e5f4 293e 71db d83d 3d38 17be
00000130: 9132 43be 1748 4e3d deab 873d 7c09 3fbe
00000140: 177c 14be 188d 3cbd b043 c83d 195c 22be
00000150: 00a8 233e 998e 8b3d eb0e 3fbd 2430 f4bd
00000160: 33fa c7bc 1946 8cbd 023c 833d 1b1e 46be
00000170: 0110 56bd e6e6 afbc 1b0f 0b3d f81e 1f3e
00000180: b691 0a3e b212 953c 39da 2dbe b620 303e
00000190: 83c0 093e 33b7 533e 43d7 ba3c d965 1a3e
000001a0: f475 5d3d 9593 bdbd 4608 d938 8a52 db3d
000001b0: aff4 8a3d 9fcf 3cbd f026 72bd ab65 0f3e
000001c0: 3570 bb3d afa6 973c f82b bebd 3ee0 b3bc
000001d0: 9b7b ce3d e203 84bd 74a7 3abd 5c55 5fbe
000001e0: a631 09be 0602 b4bd fb4a 06be 1591 19bd
000001f0: bcbb fabd 9ebd 833d e726 29be c49d b2bc

net.1.weight f4 [128]
0.87974524 1.0878594 1.0940685 0.989245 1.0941796 0.8784242 0.8713209 1.1263134
0.8596025 1.0189859 1.0451117 0.9088271 0.9602296 0.9421532 1.0580668 1.0340432
1.0565304 0.9911736 1.0418038 0.96716195 1.095211 0.8969577 0.9618395 0.8713201
0.94739914 0.8947785 1.0235577 1.0198473 1.0864607 0.8112948 1.0135486 0.9911048
0.7226698 1.0148888 1.2900852 0.843533 1.0719362 0.81101453 0.9849536 0.87702423
0.93554485 0.96795785 1.0770361 1.0123916 1.0304649 0.91261005 1.1152607 1.0472842
1.0080696 0.9545627 0.9663528 0.77145255 1.0838625 0.9031404 0.8384064 1.0963372
1.0405806 1.022201 0.80524856 1.1251371 0.8312747 0.9455361 0.9992172 1.0196972
0.9820314 0.902928 0.7584669 0.90994155 0.988753 0.96454644 0.86686385 1.0486078
0.997228 1.0916849 0.9662995 0.9694144 0.769412 0.89802665 0.950155 1.0560431
0.83456236 1.1428113 0.90341413 0.9780574 1.1419661 1.0964217 1.3355305 0.952113
1.1283418 0.98603094 0.86164784 1.0430415 0.96109366 0.9879805 1.0440489 0.9563224
0.89935064 1.0197059 1.0504575 0.8307827 0.95603204 0.94728196 1.0051596 0.97033876
0.9208778 0.80209917 0.95375156 1.0503478 1.0378445 0.96001047 1.0369196 1.0228263
1.2401295 0.8235253 0.87751496 0.86417925 0.9756999 0.910734 0.9465717 0.7858485
1.1111577 0.9678722 0.8995373 1.101897 0.9441323 0.8419017 0.8514517 0.9691134
00000000: fc36 613f fa3e 8b3f 700a 8c3f 293f 7d3f
00000010: 140e 8c3f 69e0 603f e30e 5f3f 0a2b 903f
00000020: e90e 5c3f 216e 823f 38c6 853f e5a8 683f
00000030: 9bd1 753f f430 713f bc6e 873f 875b 843f
00000040: 633c 873f 8ebd 7d3f d459 853f ed97 773f
00000050: e02f 8c3f 059f 653f 1d3b 763f d60e 5f3f
00000060: c088 723f 3410 653f f003 833f 5b8a 823f
00000070: 2511 8b3f 04b1 4f3f f6bb 813f 0bb9 7d3f
00000080: e300 393f e0e7 813f 8321 a53f c7f1 573f
00000090: 3535 893f a69e 4f3f eb25 7c3f a984 603f
000000a0: de7f 6f3f 16cc 773f 52dc 893f 0c96 813f
000000b0: 46e6 833f d0a0 693f ddc0 8e3f 690d 863f
000000c0: 6d08 813f 395e 743f e662 773f ea7d 453f
000000d0: 02bc 8a3f 3634 673f cda1 563f c754 8c3f
000000e0: bf31 853f 7bd7 823f c524 4e3f 7e04 903f
000000f0: 6bce 543f a70e 723f b3cc 7f3f 7085 823f
00000100: 6966 7b3f 4a26 673f e32a 423f eef1 683f
00000110: eb1e 7d3f 84ec 763f caea 5d3f c838 863f
00000120: 564a 7f3f 55bc 8b3f 675f 773f 8b2b 783f
00000130: 2ff8 443f 13e5 653f 5c3d 733f 6c2c 873f
00000140: e1a5 553f a447 923f 2646 673f f861 7a3f
00000150: f22b 923f 8c57 8c3f aaf2 aa3f adbd 733f
00000160: 816d 903f 866c 7c3f f494 5c3f 6282 853f
00000170: 3c0a 763f 4aec 7c3f 65a3 853f 8bd1 743f
00000180: d83b 663f b985 823f 6475 863f 2dae 543f
00000190: 84be 743f 1281 723f 12a9 803f 1f68 783f
000001a0: a6be 6b3f 5f56 4d3f 1029 743f cc71 863f
000001b0: 17d8 843f 3fc3 753f c8b9 843f f9eb 823f
000001c0: 90bc 9e3f 8ed2 523f d2a4 603f da3a 5d3f
000001d0: 78c7 793f dd25 693f 8652 723f 5e2d 493f
000001e0: 6a3a 8e3f 79c6 773f 1448 663f f60a 8d3f
000001f0: a8b2 713f df86 573f bdf8 593f d117 783f

net.1.bias f4 [128]
-0.10298518 -0.22253871 -0.2916783 -0.18956375 0.040696733 -0.110310175 -0.34862798 -0.43966174
-0.03345007 -0.437911 0.20728049 -0.16701879 -0.20875616 -0.15902375 -0.19932239 -0.41664875
0.19905816 -0.12450982 -0.22718081 -0.12752935 -0.13026808 -0.08442767 -0.27583152 -0.01873474
-0.1620499 -0.14452843 -0.55489504 -0.13063316 -0.08448684 -0.23280774 -0.24178904 -0.11028122
-0.27433792 -0.09694541 -0.031025136 0.034433365 -0.02987499 -0.31569153 -0.26070648 -0.09210881
-0.12412252 -0.4212757 -0.3807179 -0.074791715 -0.2357773 -0.272657 -0.34549996 -0.18403137
-0.019758541 -0.12913045 -0.17966412 -0.28675753 -0.41428882 -0.08080658 -0.20197001 -0.15108666
-0.10489362 -0.14444746 -0.23963338 -0.42531312 -0.17643167 -0.22109382 -0.14707448 -0.15348151
-0.036990333 -0.2332414 -0.219707 -0.1366116 -0.00071009994 -0.12361162 -0.18356358 -0.34154353
-0.48043957 -0.40371984 -0.18456794 0.036002025 -0.15718503 -0.046818715 -0.13927148 -0.15761814
-0.21528544 -0.016755708 0.088718586 -0.089559294 -0.43975 -0.09730278 -0.20720531 -0.2517819
-0.33584344 0.089097254 -0.290634 -0.004146187 -0.15722011 -0.028624456 -0.5586295 0.017742325
-0.24418682 -0.29453376 -0.24646172 -0.19983351 -0.24438936 0.004004137 -0.22919576 0.07367449
-0.19569062 -0.40913457 -0.007964665 -0.21589522 0.027460003 -0.48461545 -0.27284285 -0.25677094
-0.14195837 -0.09183555 -0.27559462 -0.2829192 -0.377826 -0.16703726 0.03180286 -0.39302126
-0.36324683 0.13600515 -0.11031488 -0.34662443 0.0075313193 -0.2995336 -0.12824489 -0.2239854
00000000: e5e9 d2bd 30e1 63be dc56 95be 001d 42be
00000010: 9eb1 263d 4dea e1bd 5e7f b2be 581b e1be
00000020: f102 09bd df35 e0be 5641 543e f906 2bbe
00000030: 2dc4 55be 1fd7 22be 2b1b 4cbe fc52 d5be
00000040: e7d5 4b3e 01ff febd 16a2 68be 0e97 02be
00000050: ff64 05be 6ae8 acbd ca39 8dbe 9979 99bc
00000060: 69f0 25be 43ff 13be 9a0d 0ebf b3c4 05be
00000070: 7007 adbd 2765 6ebe 8c97 77be 1fdb e1bd
00000080: 0576 8cbe 518b c6bd 6d28 febc 000a 0d3d
00000090: 65bc f4bc 52a2 a1be 527b 85be 8ba3 bcbd
000000a0: f333 febd 73b1 d7be 75ed c2be 662c 99bd
000000b0: 9b6f 71be b399 8bbe 5fe5 b0be b872 3cbe
000000c0: aadc a1bc c63a 04be dff9 37be e2d1 92be
000000d0: aa1d d4be ec7d a5bd 3ad1 4ebe 76b6 1abe
000000e0: 77d2 d6bd 09ea 13be 7462 75be a4c2 d9be
000000f0: 81aa 34be 6b66 62be b19a 16be 422a 1dbe
00000100: 2d83 17bd d5d6 6ebe dffa 60be e9e3 0bbe
00000110: 0026 3aba 1728 fdbd 17f8 3bbe cbde aebe
00000120: 2dfc f5be 5eb4 cebe 61ff 3cbe dc76 133d
00000130: 1df5 20be fbc4 3fbd 2f9d 0ebe a666 21be
00000140: c973 5cbe 4443 89bc 17b2 b53d dd6a b7bd
00000150: e926 e1be ae46 c7bd a12d 54be 8fe9 80be
00000160: acf3 abbe 9f78 b63d fbcd 94be bddc 87bb
00000170: 4ffe 20be d67d eabc 5802 0fbf 5a58 913c
00000180: 1c0c 7abe 21cd 96be 7660 7cbe 28a1 4cbe
00000190: 3441 7abe 2335 833b 4bb2 6abe a7e2 963d
000001a0: 1f63 48be 167a d1be 3a7e 02bc a313 5dbe
000001b0: cdf3 e03c 841f f8be 0fb2 8bbe 7b77 83be
000001c0: 895d 11be 4714 bcbd bd1a 8dbe c9da 90be
000001d0: 6972 c1be d10b 2bbe b743 023d 153a c9be
000001e0: 7dfb b9be ef44 0b3e c5ec e1bd c278 b1be
000001f0: 49c9 f63b 785c 99be a152 03be 6e5c 65be

net.1.running_mean f4 [128]
0.14735393 -0.03736144 -0.096004084 -0.026910441 -0.136084 -0.044924673 0.11715253 -0.24103044
0.011979856 -0.0636368 0.020538151 0.029601952 -0.094440475 -0.14968921 -0.047376543 0.042511463
0.17668398 0.0335479 0.11904231 -0.10711181 0.08292784 0.22458683 -0.11449049 -0.15044232
-0.12848748 0.055366434 -0.12782227 -0.14474937 -0.09498281 0.08478718 0.10047282 -0.08888992
-0.1750579 -0.07834389 0.07492391 -0.107905686 -0.14355206 -0.08880618 -0.022832789 -0.109230705
-0.020908587 -0.06373654 0.057996634 -0.08587805 -0.07767592 -0.04209117 -0.28661755 -0.012167068
-0.14474344 0.14138046 0.12040878 0.2234523 -0.14124101 -0.21403949 -0.19990742 0.12102127
-0.059761886 0.15146813 -0.13085575 0.050626956 0.09698353 -0.039838277 0.17122456 -0.19106369
0.16873029 0.054889362 0.22672607 0.12439638 0.17637798 0.042040132 -0.056590118 -0.010102366
0.14595617 0.1394317 0.090696976 -0.16261454 -0.17450635 0.07490531 0.06424016 -0.21237892
-0.14472999 -0.04625497 0.08818614 -0.15469852 0.13228215 0.092314936 -0.06928664 -0.14083865
-0.018533368 -0.03803302 0.059143476 -0.19578406 -0.069001965 -0.03929283 0.009078051 0.18283321
0.13067675 -0.007910369 -0.20025502 0.18143249 0.108765915 0.21260068 0.013871992 0.17555514
0.051530406 -0.0756953 0.019343538 0.0797424 0.06727499 -0.07487703 -0.11236927 0.15259509
0.068809606 0.02015365 -0.14483896 0.041075543 0.07401043 -0.07601476 -0.020121567 -0.21377844
-0.15713921 -0.049162894 -0.1714717 -0.067770444 -0.110701814 0.087004654 -0.2071944 -0.01695908
00000000: f3e3 163e 4f08 19bd ca9d c4bd 4973 dcbc
00000010: 9b59 0bbe ef02 38bd aaed ef3d afd0 76be
00000020: 2847 443c 0354 82bd a03f a83c cb7f f23c
00000030: 026a c1bd 2148 19be e80d 42bd 8020 2e3d
00000040: a5ec 343e 8669 093d 74cc f33d 705d dbbd
00000050: 12d6 a93d 17fa 653e fd79 eabd 8d0d 1abe
00000060: 3992 03be eac7 623d d7e3 02be 2e39 14be
00000070: 5986 c2bd e7a4 ad3d b2c4 cd3d eb0b b6bd
00000080: 6142 33be c372 a0bd b571 993d a8fd dcbd
00000090: 50ff 12be 04e0 b5bd d40b bbbc 59b4 dfbd
000000a0: 7c48 abbc 4e88 82bd e18d 6d3d d5e0 afbd
000000b0: 8e14 9fbd ca67 2cbd 89bf 92be 6258 47bc
000000c0: a037 14be 0ac6 103e e198 f63d aed0 643e
000000d0: 7ca1 10be 2b2d 5bbe 88b4 4cbe 00da f73d
000000e0: e1c8 74bd 761a 1b3e 0dff 05be 365e 4f3d
000000f0: 4d9f c63d 762d 23bd 7e55 2f3e 33a6 43be
00000100: a2c7 2c3e abd3 603d e12a 683e 87c3 fe3d
00000110: 6e9c 343e 4632 2c3d 0acb 67bd 6584 25bc
00000120: 8975 153e 2fc7 0e3e 56bf b93d 6d84 26be
00000130: cbb1 32be f567 993d 5890 833d dc79 59be
00000140: 1934 14be da75 3dbd ef9a b43d 4a69 1ebe
00000150: f974 073e 9d0f bd3d 27e6 8dbd 0238 10be
00000160: 4ad3 97bc 83c8 1bbd 6e40 723d 9e7b 48be
00000170: e750 8dbd 85f1 20bd 1bbc 143c a138 3b3e
00000180: 20d0 053e 7e9a 01bc a70f 4dbe 70c9 393e
00000190: aac0 de3d feb3 593e 5a47 633c bac4 333e
000001a0: 8c11 533d 2306 9bbd 5776 9e3c fc4f a33d
000001b0: 78c7 893d 2159 99bd dc21 e6bd e341 1c3e
000001c0: 0dec 8c3d 4419 a53c aa50 14be d43e 283d
000001d0: c892 973d a0ad 9bbd fcd5 a4bc bce8 5abe
000001e0: 1ae9 20be 085f 49bd 4796 2fbe 3bcb 8abd
000001f0: a2b7 e2bd 7f2f b23d c52a 54be c5ed 8abc

net.1.running_var f4 [128]
0.70836145 0.17940031 0.25216556 0.6506948 1.3994081 1.5539232 0.7783566 1.6298133
0.58618903 1.2697104 1.3455373 0.5743253 0.46856728 0.3295152 0.6196054 0.974795
1.7252798 0.7565361 1.9086035 0.46632844 0.4834945 0.31075045 0.3932581 1.6362073
0.5506351 1.2873487 0.9924406 0.5153391 1.1435294 0.2555479 0.5808206 0.62057966
0.92272997 1.371795 0.6276117 0.91185963 0.77678674 0.4988128 0.90886045 0.94997513
0.6604212 1.5063677 1.4493669 0.7365474 0.7293753 0.79764485 0.854528 1.0025047
0.41205752 0.31526336 1.4906124 0.2380175 0.58344114 0.657603 1.3036811 0.7979731
0.3658406 0.5047553 1.4602343 0.8966326 0.55722505 0.56307614 0.45593262 0.63341004
0.21764086 1.1278368 1.3266149 0.2967651 0.2507403 0.6240945 0.5543754 0.5137743
0.365154 1.130066 0.40404078 0.912453 0.4218768 1.3659766 0.21403919 1.8217337
0.36915085 0.6917587 0.35680878 0.2874741 1.3959317 0.25067422 0.8609911 0.50037926
0.18480547 1.101882 1.2225142 0.58971286 0.5606816 0.9763093 0.79955816 1.7783246
0.40226027 1.3285757 1.566271 0.4565869 0.601098 0.44453555 0.76032525 0.9073649
0.38519296 0.3190258 1.4247769 1.2094271 0.14925654 1.1773093 1.8542213 0.44763172
0.80192614 0.38389543 2.2066166 2.7969534 1.2009709 0.23462163 0.9120321 0.22258861
0.7541388 2.0268111 2.0100913 0.9887879 0.5998199 0.4605988 3.5454657 0.24000873
00000000: 2d57 353f b7b4 373e d81b 813e ef93 263f
00000010: ce1f b33f f5e6 c63f 6142 473f b99d d03f
00000020: 7c10 163f df85 a23f 913a ac3f fc06 133f
00000030: 0de8 ef3e 37b6 a83e 769e 1e3f 2a8c 793f
00000040: f8d5 dc3f 5aac 413f 1f4d f43f 9ac2 ee3e
00000050: 978c f73e af1a 9f3e 2059 c93e 3e6f d13f
00000060: 6cf6 0c3f d8c7 a43f 9610 7e3f 43ed 033f
00000070: 2c5f 923f 2dd7 823e a9b0 143f 4fde 1e3f
00000080: 0838 6c3f fb96 af3f 29ab 203f a26f 693f
00000090: 7fdb 463f 6464 ff3e 14ab 683f 9231 733f
000000a0: 5d11 293f a8d0 c03f db84 b93f 5f8e 3c3f
000000b0: 57b8 3a3f 7432 4c3f 59c2 5a3f 1352 803f
000000c0: 34f9 d23e 336a a13e 63cc be3f dcba 733e
000000d0: 665c 153f ac58 283f 06df a63f f747 4c3f
000000e0: 764f bb3e a537 013f f5e8 ba3f b789 653f
000000f0: 4da6 0e3f c225 103f 0070 e93e 2927 223f
00000100: 3fdd 5e3e f55c 903f 84ce a93f 98f1 973e
00000110: 0861 803e a8c4 1f3f 8ceb 0d3f b686 033f
00000120: 77f5 ba3e 01a6 903f 6fde ce3e 8596 693f
00000130: 3c00 d83e 52d8 ae3f 172d 5b3e 922e e93f
00000140: 5701 bd3e 1917 313f a4af b63e ce2f 933e
00000150: e4ad b23f 5f58 803e ea69 5c3f db18 003f
00000160: a53d 3d3e 780a 8d3f 587b 9c3f 6cf7 163f
00000170: d488 0f3f 68ef 793f d8af 4c3f 24a0 e33f
00000180: 0ff5 cd3e c50e aa3f 917b c83f c2c5 e93e
00000190: 8fe1 193f 2a9a e33e ada4 423f 1149 683f
000001a0: 0338 c53e 5a57 a33e 175f b63f 82ce 9a3f
000001b0: b5d6 183e 12b2 963f 2057 ed3f fc2f e53e
000001c0: 084b 4d3f f18d c43e 3539 0d40 4901 3340
000001d0: 6ab9 993f a740 703e f07a 693f 45ee 633e
000001e0: 3e0f 413f 46b7 0140 56a5 0040 3421 7d3f
000001f0: cc8d 193f 9bd3 eb3e e9e8 6240 d9c4 753e

net.4.weight f4 [64, 128]
-0.026778901 -0.037777953 -0.06677596 0.10112488 -0.03314037 0.039214306 0.107679926 -0.19035737
-0.0506014 -0.060079094 -0.061962757 0.18263832 0.076345675 -0.040558152 0.06901097 -0.17324942
-0.053654194 -0.10206517 0.014630916 0.0011738678 -0.118026756 -0.13415171 -0.13930795 0.14729616
-0.05343257 -0.01018867 -0.1906884 -0.03290645 0.16883852 0.12887663 -0.06989529 0.04957367
0.07453551 -0.13662422 0.04089248 -0.07991461 0.04156431 -0.015227297 0.05869788 0.011603805
0.13894545 0.011103408 -0.13386692 0.007003657 -0.11388534 0.014073177 -0.2735784 0.13340391
-0.041066356 0.098522216 -0.15370828 -0.07633257 0.124334276 -0.058106072 -0.049127612 0.116527356
-0.12811688 0.02987519 -0.056294035 -0.106985815 -0.18209752 0.01261693 -0.11176913 0.12389257
0.09181144 0.09801375 -0.05747221 -0.12591144 -0.09384659 -0.039073646 0.0072526084 -0.12639402
-0.04248045 -0.16969775 0.1809903 0.020187076 0.13273129 -0.1339113 -0.09905031 -0.20209269
0.061379466 0.15981196 0.03539029 0.05310222 -0.15623699 -0.03739271 0.15450694 -0.13719465
-0.118702374 -0.12408975 0.30680498 0.08363821 -0.009813256 0.2136464 0.00813444 -0.04123186
0.10694762 0.025907231 -0.13636284 -0.012564265 -0.018400408 0.0072779343 0.24732849 -0.11017439
0.011734893 -0.15997867 0.0024861395 -0.03339741 -0.09695695 -0.13749339 -0.14173657 0.15483393
0.0058748075 0.15071964 -0.09409496 -0.047310933 -0.10953409 -0.036254663 -0.05627759 0.056375522
-0.1324674 -0.009234659 -0.09804711 0.01905976 -0.13977765 0.06064655 -0.15832137 -0.04356187
0.19950345 -0.084806584 -0.004231488 0.09319704 0.17323487 -0.09767849 -0.005475366 0.016425129
-0.1310626 0.097492486 0.105506875 -0.099915124 -0.19884598 -0.018214496 -0.11356252 0.051179238
0.09411446 0.03387759 -0.0021718817 -0.15558632 -0.0698631 -0.17342617 0.059511807 -0.08265993
-0.15694888 0.12714756 -0.018777939 -0.0035985918 -0.018498786 0.00089168444 0.004756608 -0.021962857
0.03276995 -0.26309854 -0.27264723 0.0841055 -0.090649635 0.030383667 -0.057994768 -0.009044241
0.014335488 -0.036489103 -0.07413614 0.112896025 -0.06632961 -0.085792154 -0.1349948 -0.016628597
0.15463752 -0.017912276 0.06481193 -0.11404817 -0.04849431 -0.16723144 0.13054486 -0.07534188
-0.07440436 -0.011622961 -0.0030113405 0.032163177 -0.074972376 0.15361638 -0.20922363 -0.012472401
0.045138907 -0.12700503 0.050632115 0.030989666 0.16698934 0.004530744 0.049158234 0.051096916
-0.0669751 -0.107251056 -0.010042536 -0.02673906 -0.027921228 0.10616249 -0.061166707 0.008025414
-0.16621743 -0.13367929 -0.054994788 0.03807232 -0.0037366617 0.018739115 -0.24656573 -0.020985944
-0.10618424 0.070059866 -0.03555083 -0.08047889 -0.053121544 0.0403829 -0.0731175 0.020077651
-0.0007285006 0.04636675 -0.00010265664 -0.028614873 -0.15451795 0.029942222 -0.21222037 0.038584866
0.0661731 -0.061894465 0.015441095 -0.1325493 0.118435554 -0.0019122583 0.0074561206 0.01651117
-0.20463042 0.026145374 -0.12931398 -0.058866158 0.07150363 0.020344479 0.002734305 0.08636181
-0.022931967 0.015409127 -0.0020774142 -0.35836414 -0.05659913 -0.018586574 0.1049855 0.05441523
00000000: 6d5f dbbc 0ebd 1abd d6c1 88bd 901a cf3d
00000010: 32be 07bd 2e9f 203d 4b87 dc3d 0bed 42be
00000020: 6a43 4fbd 7f15 76bd a9cc 7dbd 8a05 3b3e
00000030: 1f5b 9c3d 4e20 26bd a055 8d3d 4c68 31be
00000040: 80c4 5bbd 8b07 d1bd 82b6 6f3c 78dc 993a
00000050: 03b8 f1bd 115f 09be bea6 0ebe ced4 163e
00000060: 1cdc 5abd 61ee 26bc d243 43be eac8 06bd
00000070: 01e4 2c3e 3cf8 033e 4325 8fbd c30d 4b3d
00000080: 13a6 983d 38e7 0bbe e07e 273d 45aa a3bd
00000090: 573f 2a3d ea7b 79bc 306d 703d e31d 3e3c
000000a0: b747 0e3e 12eb 353c 6914 09be ef7e e53b
000000b0: b83c e9bd 2f93 663c 7812 8cbe 099b 083e
000000c0: 3235 28bd 04c6 c93d b465 1dbe 4054 9cbd
000000d0: f8a2 fe3d a200 6ebd 093a 49bd e5a5 ee3d
000000e0: 1231 03be d1bc f43c 9394 66bd 611b dbbd
000000f0: c677 3abe 3db7 4e3c 37e7 e4bd 63bb fd3d
00000100: a307 bc3d 6fbb c83d fb67 6bbd eeee 00be
00000110: a432 c0bd b00b 20bd 4aa7 ed3b 6f6d 01be
00000120: fbff 2dbd 3fc5 2dbe 8555 393e 5e5f a53c
00000130: b6ea 073e 0b20 09be e4da cabd 63f1 4ebe
00000140: 0969 7b3d bfa5 233e 69f5 103d b781 593d
00000150: 97fc 1fbe 1929 19bd 1137 1e3e c17c 0cbe
00000160: 3b1a f3bd c422 febd 8b15 9d3e 834a ab3d
00000170: c7c7 20bc 1fc6 5a3e 5046 053c bde2 28bd
00000180: 5b07 db3d 673b d43c b3a2 0bbe 59da 4dbc
00000190: 74bc 96bc bd7b ee3b ae43 7d3e 1ca3 e1bd
000001a0: b543 403c 73d1 23be 80ee 223b b9cb 08bd
000001b0: 5e91 c6bd 11cb 0cbe 6423 11be c98c 1e3e
000001c0: 7581 c03b 4056 1a3e dcb4 c0bd 1cc9 41bd
000001d0: 6953 e0bd c57f 14bd 5583 66bd 05ea 663d
000001e0: 89a5 07be f84c 17bc eccc c8bd 3723 9c3c
000001f0: df21 0fbe 8468 783d ff1e 22be ee6d 32bd
00000200: a24a 4c3e 13af adbd 4ba8 8abb 17de be3d
00000210: 7b64 313e a90b c8bd b36a b3bb fe8d 863c
00000220: 4635 06be 24aa c73d fd13 d83d 4da0 ccbd
00000230: 489e 4bbe 9136 95bc 7793 e8bd 52a1 513d
00000240: 15bf c03d 3ac3 0a3d 2156 0ebb 0552 1fbe
00000250: 6314 8fbd a196 31be a7c2 733d 9c49 a9bd
00000260: 35b7 20be f832 023e 31d4 99bc 5ad6 6bbb
00000270: c48a 97bc eebf 693a 52dd 9b3b 73eb b3bc
00000280: c839 063d dab4 86be 6b98 8bbe 813f ac3d
00000290: 84a6 b9bd 2be7 f83c ec8b 6dbd 4c2e 14bc
000002a0: 65df 6a3c 9975 15bd b0d4 97bd 0836 e73d
000002b0: d2d7 87bd ccb3 afbd 143c 0abe b238 88bc
000002c0: 4c59 1e3e c4bc 92bc 1ebc 843d 1692 e9bd
000002d0: f8a1 46bd b83e 2bbe 8dad 053e d84c 9abd
000002e0: 5061 98bd 3b6e 3ebc e959 45bb 89bd 033d
000002f0: 1e8b 99bd 9d4d 1d3e b83e 56be 0b59 4cbc
00000300: 93e3 383d 9b0d 02be 9f63 4f3d 0ade fd3c
00000310: 41ff 2a3e a376 943b 255a 493d 004b 513d
00000320: 3e2a 89bd 71a6 dbbd 7389 24bc e00b dbbc
00000330: 0fbb e4bc b86b d93d f189 7abd 077d 033c
00000340: e734 2abe 39e3 08be 3742 61bd b9f1 1b3d
00000350: c8e2 74bb c682 993c ba7b 7cbe b7ea abbc
00000360: 1f77 d9bd 8c7b 8f3d bf9d 11bd 1ed2 a4bd
00000370: fa95 59bd 8a68 253d a1be 95bd e379 a43c
00000380: d9f8 3eba 10eb 3d3d 5d49 d7b8 bd69 eabc
00000390: f439 1ebe 6449 f53c 4c50 59be 2a0b 1e3d
000003a0: c385 873d 0d85 7dbd a6fc 7c3c 01bb 07be
000003b0: 578e f23d bea4 faba 7952 f43b 6f42 873c
000003c0: a38a 51be d32e d63c e26a 04be a41d 71bd
000003d0: 7f70 923d 77a9 a63c 0732 333b 76de b03d
000003e0: d2db bbbc 9076 7c3c 3a25 08bb 817b b7be
000003f0: 7dd4 67bd df42 98bc a302 d73d 81e2 5e3d

net.4.bias f4 [64]
-0.056600753 -0.025289588 0.026638508 -0.0014371497 0.06264578 0.050629683 0.035726223 -0.051730603
0.03557739 -0.04098499 0.07298493 0.0041662976 0.03531302 0.05384878 -0.08771973 0.052160274
0.059975013 0.0075092837 0.01409443 -0.049119156 -0.033566516 -0.038613092 0.0569416 0.068225615
0.035862435 0.018345356 -0.04274157 0.0032076496 -0.06787894 0.056130107 0.0602883 0.05465927
0.0022866442 0.044804215 0.06018341 -0.00093854393 0.04875646 -0.044927135 0.03496992 0.07404059
0.0196961 -0.038306564 -0.014316324 0.044904213 -0.018457146 0.06921353 0.07915791 -0.0039872504
0.08577061 0.03849915 0.005401303 0.086109035 -0.036692537 0.024158807 -0.07700768 0.060909383
0.06736205 -0.051599275 -0.010363524 0.075032905 0.053553294 -0.044389993 -0.008133336 -0.05193383
00000000: 31d6 67bd 1c2c cfbc 0039 da3c be5e bcba
00000010: 6e4c 803d 1261 4f3d a955 123d 78e3 53bd
00000020: 99b9 113d e0df 27bd 1f79 953d 7085 883b
00000030: 63a4 103d 8a90 5c3d 67a6 b3bd 03a6 553d
00000040: 5ca8 753d 7010 f63b 53ec 663c 2b31 49bd
00000050: 0b7d 09bd c328 1ebd 983b 693d dfb9 8b3d
00000060: 7de4 123d 0049 963c c911 2fbd 6e37 523b
00000070: 1d04 8bbd afe8 653d ddf0 763d 66e2 5f3d
00000080: 86db 153b a084 373d e182 763d 9e08 76ba
00000090: dbb4 473d 8405 38bd 9e3c 0f3d 98a2 973d
000000a0: b759 a13c 58e7 1cbd 048f 6abc 7bed 373d
000000b0: 7133 97bc d3bf 8d3d 8b1d a23d 7ba7 82bb
000000c0: 80a8 af3d 49b1 1d3d 6afd b03b ef59 b03d
000000d0: ea4a 16bd b1e8 c53c 34b6 9dbd 1e7c 793d
000000e0: 1df5 893d c359 53bd c5cb 29bc daaa 993d
000000f0: b35a 5b3d 48d2 35bd af41 05bc 91b8 54bd

net.5.weight f4 [64]
1.5553113 1.378008 1.5322126 1.2570747 1.5116655 1.3356844 1.2893614 1.2578889
1.4081203 1.1289115 1.4141557 1.4722121 1.2853402 1.3229574 1.5319318 1.142317
1.1315295 1.1435095 1.2554632 1.4397005 1.3467101 1.2008245 1.3738939 1.4892825
1.4805207 0.99664766 1.3043088 1.3882841 1.2216561 1.2552205 1.1342143 1.4707358
1.3309184 1.2945831 1.231957 1.3478402 1.2374562 1.4694456 1.5913637 1.3186402
1.3125457 0.94288975 1.1649382 1.1909072 1.4933255 1.1979283 1.3028291 1.1458889
1.3305751 1.1297519 1.5285791 1.4027661 1.3648775 1.2568296 1.4449624 1.2126434
1.3873543 1.3913689 1.4610299 1.4570012 1.1586539 1.2405764 1.2861037 1.3009975
00000000: 7114 c73f 9162 b03f 8b1f c43f d3e7 a03f
00000010: 417e c13f b5f7 aa3f cb09 a53f 8102 a13f
00000020: 493d b43f 2c80 903f 0e03 b53f 7271 bc3f
00000030: 0786 a43f ab56 a93f 5716 c43f 7237 923f
00000040: f5d5 903f 855e 923f 05b3 a03f 1b48 b83f
00000050: ff60 ac3f 9eb4 993f c1db af3f cfa0 be3f
00000060: b481 bd3f 4d24 7f3f 97f3 a63f 4bb3 b13f
00000070: 3a5f 9c3f 11ab a03f ef2d 913f 1241 bc3f
00000080: 895b aa3f e6b4 a53f c4b0 9d3f 0786 ac3f
00000090: f764 9e3f cb16 bc3f ceb1 cb3f 34c9 a83f
000000a0: 7f01 a83f 3961 713f b21c 953f a66f 983f
000000b0: 4a25 bf3f b755 993f 1bc3 a63f 7dac 923f
000000c0: 4950 aa3f b69b 903f 7ba8 c33f d78d b33f
000000d0: 4eb4 ae3f cbdf a03f 87f4 b83f e637 9b3f
000000e0: d394 b13f 6018 b23f 0703 bb3f 047f ba3f
000000f0: c54e 943f 35cb 9e3f 0c9f a43f 1687 a63f

net.5.bias f4 [64]
0.31862515 0.11874998 0.30450898 -0.13993527 0.2371366 0.061166152 0.036736198 -0.019177558
0.16287187 -0.08072932 0.28809744 0.12733357 0.2808388 0.1229267 0.27643335 0.0463825
-0.15179637 -0.12631927 0.12214493 0.037163507 0.2426882 0.054185655 0.30077514 0.31128109
8.669867e-05 -0.22897258 0.22478391 0.24141611 0.1648806 0.18026553 0.10951871 0.031750973
0.3862178 0.042215463 0.04504477 0.18277517 -0.042100977 0.16278923 0.26221064 0.099158354
0.18079713 -0.13579221 0.048286285 0.01371956 0.41540077 -0.1675232 0.1847774 0.014769821
0.10430698 -0.14240815 0.4397104 0.25010192 0.21510597 0.20802043 0.35532883 -0.026743941
0.25099248 0.19074376 0.20749389 0.28557143 0.0602418 0.047199108 -0.19197783 0.14942703
00000000: d622 a33e 3133 f33d 9ae8 9b3e 314b 0fbe
00000010: f0d3 723e 5c89 7a3d b278 163d 411a 9dbc
00000020: e2c7 263e 6a55 a5bd 8281 933e bb63 023e
00000030: 1aca 8f3e fec0 fb3d ac88 8d3e 94fb 3d3d
00000040: 8270 1bbe d759 01be 1f27 fa3d c338 183d
00000050: 4183 783e c7f1 5d3d 33ff 993e 3c60 9f3e
00000060: fed1 b538 ca77 6abe c12d 663e c935 773e
00000070: 76d6 283e 8797 383e 584b e03d 4f0d 023d
00000080: 57be c53e 1fea 2c3d dd80 383d 6a29 3b3e
00000090: 1372 2cbd 38b2 263e 7940 863e 8913 cb3d
000000a0: e222 393e 1d0d 0bbe d7c7 453d 01c8 603c
000000b0: 69af d43e 348b 2bbe 4936 3d3e 1ffd 713c
000000c0: e69e d53d 71d3 11be b921 e13e 5c0d 803e
000000d0: bd44 5c3e 4f03 553e a9ed b53e 1c16 dbbc
000000e0: 1682 803e 5552 433e 4779 543e 6b36 923e
000000f0: 1bc0 763d da53 413d d695 44be 6603 193e

net.5.running_mean f4 [64]
-0.67638355 -0.8050431 -0.81477743 1.0778605 -0.49541637 1.4734707 -0.3925202 1.0153316
1.206619 0.018493736 -1.316207 -1.7284398 -1.1007241 -1.7446159 -1.51559 -0.16913268
0.58150893 0.47391808 -0.04302777 -0.64896446 -0.3032569 -1.185021 -0.10864631 0.89644
-0.35131222 1.226005 -1.8316332 -0.8004639 -0.24884982 -0.8326904 -0.61031544 -0.5532413
-2.0384102 0.5006956 -0.11886639 -0.04608565 0.83151436 -0.6490537 -0.6962558 -0.36559764
-1.1922565 0.43912578 -0.78324735 -0.16537549 -2.0176833 1.8360007 0.5296094 -0.3427264
-0.1661301 1.0523033 -1.6270906 -0.70872355 0.6358182 -0.052765224 -1.047455 0.09951782
-1.5390214 0.63479066 -0.635734 -0.37126672 0.29554376 -0.98371905 0.6447991 0.7095202
00000000: 7927 2dbf 4e17 4ebf 4195 50bf 55f7 893f
00000010: 37a7 fdbe b09a bc3f 68f8 c8be 63f6 813f
00000020: 7e72 9a3f 2d80 973c 7979 a8bf 843d ddbf
00000030: 87e4 8cbf 934f dfbf dafe c1bf 1e31 2dbe
00000040: c5dd 143f 64a5 f23e e33d 30bd 8922 26bf
00000050: 7d44 9bbe c5ae 97bf f581 debd 187d 653f
00000060: 32df b3be bbed 9c3f f572 eabf 34eb 4cbf
00000070: 7dd2 7ebe 332b 55bf a23d 1cbf 39a1 0dbf
00000080: 5075 02c0 962d 003f 3970 f3bd 4ec4 3cbd
00000090: 20de 543f 6228 26bf d23d 32bf 9d2f bbbe
000000a0: dc9b 98bf 18d5 e03e e682 48bf 3158 29be
000000b0: b921 01c0 1202 eb3f 7b94 073f d679 afbe
000000c0: 021e 2abe e0b1 863f 8144 d0bf e86e 35bf
000000d0: fbc4 223f 5920 58bd 0113 86bf 00d0 cb3d
000000e0: a7fe c4bf a481 223f 77bf 22bf ac16 bebe
000000f0: 8351 973e 03d5 7bbf 8e11 253f 1ea3 353f

net.5.running_var f4 [64]
1.9454966 1.4581212 3.8220632 1.6258618 6.686529 1.7150633 0.80649734 1.1783056
1.7527477 1.3416939 3.7130089 1.8756522 1.127465 1.4814873 2.6441615 1.8098327
1.5237452 1.2707256 1.3155804 3.4167566 2.54214 1.4430064 5.464914 3.9115965
4.548757 1.9818895 1.7183992 7.298577 1.5865942 2.8018384 1.061718 3.9439745
2.6232917 1.570505 4.033973 1.9946856 1.3834102 5.3352423 4.5131435 2.4400175
5.21635 0.935262 1.7324148 1.7819343 1.9133567 2.3378003 1.5663751 2.3696775
3.00449 1.450578 3.9062805 4.556053 1.3578507 1.9023958 3.0764825 1.2505833
2.0148582 1.7342271 4.667895 3.7669415 2.023356 1.8992387 1.3472103 1.8334523
00000000: 0806 f93f b7a3 ba3f af9c 7440 3d1c d03f
00000010: 0cf8 d540 3287 db3f 9c76 4e3f b8d2 963f
00000020: 095a e03f a0bc ab3f f0a1 6d40 5f15 f03f
00000030: c650 903f 60a1 bd3f f139 2940 99a8 e73f
00000040: 150a c33f 23a7 a23f f064 a83f 24ac 5a40
00000050: 6cb2 2240 6fb4 b83f 93e0 ae40 9957 7a40
00000060: 6b8f 9140 8eae fd3f 81f4 db3f f18d e940
00000070: 8515 cb3f 5251 3340 60e6 873f 146a 7c40
00000080: 03e4 2740 4f06 c93f 4f16 8140 dc51 ff3f
00000090: 9613 b13f 4eba aa40 ac6b 9040 3f29 1c40
000000a0: 57ec a640 556d 6f3f c5bf dd3f 6c16 e43f
000000b0: dfe8 f43f 859e 1540 fb7e c83f cca8 1740
000000c0: 9049 4040 8aac b93f 8000 7a40 30cb 9140
000000d0: 0dce ad3f b581 f33f 17e5 4440 1d13 a03f
000000e0: 70f3 0040 27fb dd3f 655f 9540 9215 7140
000000f0: aa7e 0140 411a f33f 6371 ac3f 91ae ea3f

net.8.weight f4 [6, 64]
-0.6759241 -0.29349992 -0.27565008 0.2047164 -0.08450978 0.1434385 -0.26655692 0.15700136
0.25245607 -0.20337541 -0.42263687 -0.33303982 -0.4247415 -0.29666674 -0.45845222 -0.087176
-0.15438484 0.0044423244 -0.17302603 -0.19466993 -0.43985525 -0.019016758 -0.01798471 0.16358781
-0.049388655 0.075709194 -0.2817677 -0.005873664 -0.30932832 -0.14353858 -0.18781158 -0.03060099
-0.53843063 0.14515741 0.015821777 -0.30855834 0.15216997 -0.19611458 -0.22074911 -0.24392
-0.38408998 -0.028889438 -0.22584133 -0.29290497 -0.14610401 0.10646452 -0.48015192 -0.045053117
-0.18951051 -0.15501535 -0.5829911 -0.12371614 0.12200445 0.07552589 -0.44356325 -0.1819168
-0.29656047 -0.29063874 -0.25409105 -0.1805964 -0.20341446 0.026377518 0.21355881 0.21334215
0.22413337 -0.11079692 -0.46776152 -0.3136892 -0.57425874 -0.21522179 0.36852917 -0.1525982
-0.09995918 0.008039612 0.23794629 0.27532187 0.093598604 -0.075617954 0.29839227 0.09501338
-0.47539088 -0.41939214 0.09291491 -0.3281327 0.14033826 -0.22392625 0.119952396 0.050478905
-0.32763842 -0.05891891 -0.0001603506 0.23958328 0.23962885 -0.36386156 -0.07216147 -0.27898672
0.13582456 -0.14823839 -0.45395687 0.16377878 -0.1636906 -0.7159922 -0.5955547 -0.19377333
0.14435704 -0.16363776 0.14710473 0.16262928 0.25457388 -0.35787177 0.19020978 -0.22673278
-0.45722145 -0.35621515 0.25695607 -0.28526276 -0.1185881 0.06115727 0.30306828 0.349888
0.014732408 0.2486328 -0.58627856 0.29571608 -0.5419202 0.28255805 -0.2863807 -0.07835565
0.1907717 -0.20975216 0.15706253 -0.2563523 -0.021158116 -0.46089715 0.18520018 -0.6073257
-0.4532887 -0.16707349 0.231987 -0.057071168 0.22510162 0.17296024 0.13383876 -0.07288531
0.029195555 0.057783518 -0.18183607 -0.3656084 0.16225791 0.220657 -0.31191814 -0.6876645
-0.3713859 -0.25811604 0.10507055 -0.07084789 0.09799455 0.17763479 0.0890069 -0.4086783
0.27407545 -0.27128467 -0.3541365 -0.09750549 -0.5237051 -0.15129878 0.0602571 -0.24098623
0.07863635 0.11926741 0.18967666 0.12721732 0.19888136 -0.06902724 -0.10736052 -0.40001905
-0.060523234 -0.16555889 0.22970274 0.19078356 -0.38745815 -0.06575094 0.14781277 -0.23565482
0.23386115 0.14568998 0.05309236 0.2744132 -0.02388732 0.28373444 -0.19909988 -0.5556891
-0.19436768 -0.27798292 -0.41269177 0.034724277 -0.30079156 0.048118632 -0.22289635 0.023608986
0.10481655 -0.101568684 0.050869096 0.20830159 -0.14983904 -0.42660958 0.123578526 0.22010489
-0.22288036 -0.3079857 0.20807432 -0.2468074 0.16218701 -0.3495375 0.07717052 0.13790612
-0.1173755 -0.1238122 -0.43392733 0.19355342 0.026943883 -0.14515938 -0.32259664 -0.14694203
-0.027496122 0.08005828 -0.23547783 0.14754097 0.0870907 -0.33260128 -0.27978992 -0.46950337
0.2330703 -0.1558633 -0.06110097 -0.33663762 -0.42995712 -0.16934821 0.2067402 -0.042111177
-0.08974212 -0.19026557 0.015458459 -0.2885147 0.09358427 0.041064292 0.2696453 -0.15020052
-0.42155406 0.24413507 -0.48741812 0.07612371 -0.38002855 -0.029988524 0.13467145 0.10230129
00000000: 5d09 2dbf 9f45 96be 0222 8dbe 2da1 513e
00000010: 7713 adbd 8be1 123e 267a 88be f7c4 203e
00000020: ec41 813e a541 50be dc63 d8be 3284 aabe
00000030: b877 d9be b4e4 97be 40ba eabe 5589 b2bd
00000040: 0f17 1ebe eb90 913b bc2d 31be 8e57 47be
00000050: b534 e1be 08c9 9bbc ac54 93bc 9083 273e
00000060: c24b 4abd 6c0d 9b3d db43 90be dd77 c0bb
00000070: 4860 9ebe c7fb 12be ae51 40be edae fabc
00000080: 97d6 09bf 25a4 143e ac9c 813c 5cfb 9dbe
00000090: 72d2 1b3e 43d2 48be 0e0c 62be 2ac6 79be
000000a0: 71a7 c4be 8ba9 ecbc f342 67be a4f7 95be
000000b0: 4a9c 15be 120a da3d 79d6 f5be 9e89 38bd
000000c0: 0b0f 42be 58bc 1ebe e83e 15bf e35e fdbd
000000d0: 78dd f93d 51ad 9a3d b91a e3be 6648 3abe
000000e0: c6d6 97be 9ace 94be 3918 82be 43ee 38be
000000f0: e14b 50be aa15 d83c 29af 5a3e 5d76 5a3e
00000100: 3883 653e 7fe9 e2bd 707e efbe df9b a0be
00000110: 9f02 13bf 1a63 5cbe dbaf bc3e b442 1cbe
00000120: 66b7 ccbd 94b8 033c 31a8 733e fdf6 8c3e
00000130: a0b0 bf3d 96dd 9abd dfc6 983e 6096 c23d
00000140: 6f66 f3be 91ba d6be 2c4a be3d 0201 a8be
00000150: d5b4 0f3e ec4c 65be 9aa9 f53d f8c2 4e3d
00000160: 39c0 a7be f454 71bd c923 28b9 5255 753e
00000170: 4461 753e 104c babe 65c9 93bd 59d7 8ebe
00000180: 9815 0b3e cecb 17be 096d e8be a0b5 273e
00000190: 829e 27be 444b 37bf 4676 18bf 846c 46be
000001a0: 55d2 133e a890 27be 9fa2 163e 4a88 263e
000001b0: 8257 823e f83a b7be 5ac6 423e a32c 68be
000001c0: ee18 eabe d561 b6be bf8f 833e f60d 92be
000001d0: 51de f2bd 0c80 7a3d c42b 9b3e 8524 b33e
000001e0: 3360 713c 9999 7e3e 5a16 16bf 1968 973e
000001f0: 48bb 0abf 73ab 903e 7ea0 92be ed78 a0bd
00000200: a859 433e 45c9 56be 00d5 203e 9c40 83be
00000210: c953 adbc b6fa ebbe 1ea5 3d3e b279 1bbf
00000220: 7515 e8be 5015 2bbe 008e 6d3e 75c3 69bd
00000230: 0a81 663e 7d1c 313e 070d 093e e544 95bd
00000240: 842b ef3c 69ae 6c3d 3c33 3abe 0631 bbbe
00000250: f026 263e e9f3 613e bcb3 9fbe c80a 30bf
00000260: 4b26 bebe c927 84be 3b2f d73d b318 91bd
00000270: 5eb1 c83d e5e5 353e 4049 b63d 483e d1be
00000280: 9e53 8c3e d3e5 8abe 6151 b5be f5b0 c7bd
00000290: 8a11 06bf 11ee 1abe 26d0 763d 18c5 76be
000002a0: 180c a13d 7942 f43d 993a 423e 4245 023e
000002b0: 8ea7 4b3e 275e 8dbd d5df dbbd 4ccf ccbe
000002c0: 36e7 77bd 4588 29be 3237 6b3e c45c 433e
000002d0: ea60 c6be 6ea8 86bd 3b5c 173e 7f4f 71be
000002e0: 4c79 6f3e c12f 153e 6077 593d e37f 8c3e
000002f0: 57af c3bc a445 913e d7e0 4bbe a441 0ebf
00000300: 5208 47be c753 8ebe 564c d3be 0b3b 0e3d
00000310: 5a01 9abe 0b18 453d f13e 64be a267 c13c
00000320: 0faa d63d 3e03 d0bd 1d5c 503d 034d 553e
00000330: 686f 19be 926c dabe bd16 fd3d 2d63 613e
00000340: c03a 64be 4db0 9dbe 6f11 553e 14bb 7cbe
00000350: 5a14 263e 94f6 b2be 940b 9e3d 4337 0d3e
00000360: 9162 f0bd 4091 fdbd b92b debe de32 463e
00000370: 6bb9 dc3c a9a4 14be 632b a5be f977 16be
00000380: 8c3f e1bc 98f5 a33d 1a21 71be fb14 173e
00000390: 9c5c b23d b74a aabe a040 8fbe bf62 f0be
000003a0: fba9 6e3e a19a 1fbe 0345 7abd c45b acbe
000003b0: 5723 dcbe 9e69 2dbe b4b3 533e c57c 2cbd
000003c0: b7ca b7bd fad4 42be 7a45 7d3c 33b8 93be
000003d0: 1ca9 bf3d 0833 283d f30e 8a3e 2ace 19be
000003e0: efd5 d7be 8bfe 793e de8e f9be bfe6 9b3d
000003f0: 1a93 c2be 7eaa f5bc 50e7 093e 5783 d13d

net.8.bias f4 [6]
-0.1660962 0.20405632 0.19797675 0.098337606 -0.14073658 0.07010094
00000000: 1f15 2abe 24f4 503e 6bba 4a3e 3a65 c93d
00000010: 401d 10be 1591 8f3d
